SERVER/onnx_model.onnx (onnx, 78788 bytes, 37 tensors)

StatefulPartitionedCall/model/neuron7/MatMul/ReadVariableOp:0 f4 [2, 1]
0.31193787 -0.3852955
00000000: 52b6 9f3e 7445 c5be

StatefulPartitionedCall/model/neuron6/MatMul/ReadVariableOp:0 f4 [3, 1]
0.99999905 -0.96196073 -1.0
00000000: f0ff 7f3f 0f43 76bf 0000 80bf

StatefulPartitionedCall/model/neuron4/MatMul/ReadVariableOp:0 f4 [2, 1]
-0.46839744 -0.16218114
00000000: cad1 efbe d012 26be

StatefulPartitionedCall/model/neuron26/MatMul/ReadVariableOp:0 f4 [5, 1]
-1.0 -0.9963375 0.1706711 0.7606705 -1.0
00000000: 0000 80bf f90f 7fbf 68c4 2e3e 4dbb 423f
00000010: 0000 80bf

StatefulPartitionedCall/model/neuron25/MatMul/ReadVariableOp:0 f4 [2, 1]
-0.20477319 0.5628674
00000000: 10b0 51be 1418 103f

StatefulPartitionedCall/model/neuron24/MatMul/ReadVariableOp:0 f4 [3, 1]
-0.23376966 0.25864536 -0.9999759
00000000: 5061 6fbe 2a6d 843e 6cfe 7fbf

StatefulPartitionedCall/model/neuron23/MatMul/ReadVariableOp:0 f4 [4, 1]
-1.0 -0.9635318 0.9999999 0.99999976
00000000: 0000 80bf 05aa 76bf feff 7f3f fcff 7f3f

StatefulPartitionedCall/model/neuron22/MatMul/ReadVariableOp:0 f4 [4, 1]
-0.31553665 -1.0 -1.0 -0.8586437
00000000: 058e a1be 0000 80bf 0000 80bf 13d0 5bbf

StatefulPartitionedCall/model/neuron21/MatMul/ReadVariableOp:0 f4 [3, 1]
-1.0 0.69585496 1.0
00000000: 0000 80bf 8d23 323f 0000 803f

StatefulPartitionedCall/model/neuron20/MatMul/ReadVariableOp:0 f4 [6, 1]
-1.0 -0.7468544 -0.11665255 0.7643036 -1.0 -1.0
00000000: 0000 80bf da31 3fbf 88e7 eebd 67a9 433f
00000010: 0000 80bf 0000 80bf

StatefulPartitionedCall/model/neuron19/MatMul/ReadVariableOp:0 f4 [6, 1]
-0.08826529 0.54452 -1.0 0.37111104 0.99999905 -0.8381094
00000000: 6fc4 b4bd aa65 0b3f 0000 80bf 4402 be3e
00000010: f0ff 7f3f 568e 56bf

StatefulPartitionedCall/model/neuron18/MatMul/ReadVariableOp:0 f4 [4, 1]
-1.0 -0.42691427 -0.8370772 1.0
00000000: 0000 80bf 8294 dabe b14a 56bf 0000 803f

StatefulPartitionedCall/model/neuron17/MatMul/ReadVariableOp:0 f4 [4, 1]
0.57148 -0.7262187 0.8379774 -0.57676065
00000000: 834c 123f 78e9 39bf b085 563f 96a6 13bf

StatefulPartitionedCall/model/neuron16/MatMul/ReadVariableOp:0 f4 [3, 1]
-0.6043609 -1.0 0.5239628
00000000: 65b7 1abf 0000 80bf 6d22 063f

StatefulPartitionedCall/model/neuron14/MatMul/ReadVariableOp:0 f4 [4, 1]
-1.0 -1.0 -1.0 -0.5299501
00000000: 0000 80bf 0000 80bf 0000 80bf cfaa 07bf

StatefulPartitionedCall/model/neuron13/MatMul/ReadVariableOp:0 f4 [3, 1]
1.0 -1.0 1.0
00000000: 0000 803f 0000 80bf 0000 803f

StatefulPartitionedCall/model/neuron11/MatMul/ReadVariableOp:0 f4 [3, 1]
-0.18152988 1.0 -0.029179767
00000000: f8e2 39be 0000 803f 680a efbc

StatefulPartitionedCall/model/neuron10/MatMul/ReadVariableOp:0 f4 [2, 1]
-0.9997984 -0.5249001
00000000: caf2 7fbf da5f 06bf

StatefulPartitionedCall/model/input_layer9/MatMul/ReadVariableOp:0 f4 [5, 1]
-0.9887532 0.24017912 0.66395676 -1.0 -0.9999999
00000000: ee1e 7dbf 84f1 753e 12f9 293f 0000 80bf
00000010: feff 7fbf

StatefulPartitionedCall/model/input_layer8/MatMul/ReadVariableOp:0 f4 [4, 1]
0.29323953 -1.0 -0.16244918 -0.0490383
00000000: 7e23 963e 0000 80bf 1459 26be 62dc 48bd

StatefulPartitionedCall/model/input_layer7/MatMul/ReadVariableOp:0 f4 [3, 1]
1.0 -0.9021034 0.72204417
00000000: 0000 803f 40f0 66bf e3d7 383f

StatefulPartitionedCall/model/input_layer6/MatMul/ReadVariableOp:0 f4 [3, 1]
0.8789224 0.5477191 0.99999815
00000000: 0f01 613f 5237 0c3f e1ff 7f3f

StatefulPartitionedCall/model/input_layer4/MatMul/ReadVariableOp:0 f4 [3, 1]
-0.3064306 -0.9013176 0.58173364
00000000: 79e4 9cbe c0bc 66bf 7fec 143f

StatefulPartitionedCall/model/input_layer3/MatMul/ReadVariableOp:0 f4 [6, 1]
-0.07639353 -0.11267069 1.0 0.68762577 -0.21300793 -0.91432226
00000000: 3674 9cbd e4bf e6bd 0000 803f 3e08 303f
00000010: c01e 5abe 0611 6abf

StatefulPartitionedCall/model/input_layer25/MatMul/ReadVariableOp:0 f4 [3, 1]
0.84232384 -1.0 -0.6967626
00000000: 89a2 573f 0000 80bf 095f 32bf

StatefulPartitionedCall/model/input_layer24/MatMul/ReadVariableOp:0 f4 [2, 1]
-0.95086366 -0.9999783
00000000: cd6b 73bf 94fe 7fbf

StatefulPartitionedCall/model/input_layer21/MatMul/ReadVariableOp:0 f4 [2, 1]
-0.75 0.5733037
00000000: 0000 40bf 08c4 123f

StatefulPartitionedCall/model/input_layer18/MatMul/ReadVariableOp:0 f4 [3, 1]
-1.0 -1.0 -0.875
00000000: 0000 80bf 0000 80bf 0000 60bf

StatefulPartitionedCall/model/input_layer17/MatMul/ReadVariableOp:0 f4 [3, 1]
-0.9986291 -1.0 0.7734375
00000000: 28a6 7fbf 0000 80bf 0000 463f

StatefulPartitionedCall/model/input_layer16/MatMul/ReadVariableOp:0 f4 [2, 1]
0.62893534 0.67596877
00000000: e801 213f 4a0c 2d3f

StatefulPartitionedCall/model/input_layer15/MatMul/ReadVariableOp:0 f4 [4, 1]
-0.9046235 0.5795145 -0.9999995 -1.0
00000000: 6895 67bf 105b 143f f8ff 7fbf 0000 80bf

StatefulPartitionedCall/model/input_layer13/MatMul/ReadVariableOp:0 f4 [3, 1]
-0.24708483 0.66786885 -0.3698681
00000000: ce03 7dbe 74f9 2a3f 5a5f bdbe

StatefulPartitionedCall/model/input_layer12/MatMul/ReadVariableOp:0 f4 [5, 1]
0.83469176 0.82250786 -0.9996928 -0.8131777 -0.3729111
00000000: 5cae 553f e08f 523f deeb 7fbf 6a2c 50bf
00000010: 34ee bebe

StatefulPartitionedCall/model/input_layer11/MatMul/ReadVariableOp:0 f4 [2, 1]
0.72922647 -0.42330638
00000000: 96ae 3a3f 9dbb d8be

StatefulPartitionedCall/model/input_layer10/MatMul/ReadVariableOp:0 f4 [3, 1]
0.2554077 -1.0 0.2122449
00000000: ccc4 823e 0000 80bf ba56 593e

StatefulPartitionedCall/model/input_layer1/MatMul/ReadVariableOp:0 f4 [4, 1]
0.54517955 -0.8269323 -1.0 -1.0
00000000: e390 0b3f d6b1 53bf 0000 80bf 0000 80bf

StatefulPartitionedCall/model/input_layer0/MatMul/ReadVariableOp:0 f4 [5, 1]
0.875 -1.0 1.0 0.62669086 1.0
00000000: 0000 603f 0000 80bf 0000 803f d06e 203f
00000010: 0000 803f
